forward/checkpoint.pt (torch, 211307 bytes, 10 tensors)

fc1.weight f4 [128, 15]
0	0x3e62c04e	0.22143671
1	0x3d2b077f	0.041755196
2	0xc00a959e	-2.165382
3	0x3c6d69d3	0.0144905625
4	0xbd1cf612	-0.03832061
5	0xbe411316	-0.18854937
6	0xbc8bc667	-0.017062379
7	0x3d1e322d	0.03862207
8	0x3c74a000	0.014930725
9	0x3c4414c7	0.011967844
10	0x3ca2c9c7	0.019871606
11	0xbc66fb0d	-0.014097941
12	0xba636f91	-0.00086759875
13	0xbb22a9f9	-0.002482055
14	0xbb57ed8a	-0.003294798
15	0xbd482a26	-0.04886832
16	0x3bbb22b2	0.005710923
17	0x3e11d8a9	0.14242806
18	0x3c46a822	0.012125047
19	0x3b65d53a	0.003506972
20	0x3e0d2131	0.13782193
21	0x3c84cef5	0.016211966
22	0xbb67b7f4	-0.0035357447
23	0x3bcf100f	0.006319053
24	0x3d78466e	0.060614042
25	0x3daaa876	0.083329126
26	0x3e2d0e28	0.16899931
27	0x3e8b4dbb	0.2720774
28	0xbcad7910	-0.021175891
29	0xbfbfb878	-1.497817
30	0xbdf60aba	-0.12013765
31	0xbe2d71f6	-0.16938004
32	0xbeb6ba0b	-0.35688815
33	0x3e423e44	0.18969065
34	0x3da5397f	0.08067607
35	0x3e9d9cbe	0.30783647
36	0x3e82151e	0.25406736
37	0xbbddc959	-0.0067683873
38	0x3b5b1ed7	0.003343513
39	0xbe09f8b4	-0.13473779
40	0x3d977a0e	0.07396327
41	0xbdd1c203	-0.10242083
42	0xbcd848b4	-0.026401855
43	0x3e206b21	0.15665866
44	0x3e4964f2	0.19667414
45	0xbf1255e2	-0.57162297
46	0xbeaa3358	-0.33242297
47	0xbf8897d5	-1.0671335
48	0xbc939a33	-0.018017864
49	0x3d9fd7c5	0.07804827
50	0x3f29a004	0.6625979
51	0x3d334311	0.04376513
52	0x3c678ecb	0.014133166
53	0xbada794c	-0.0016668229
54	0x3c05f720	0.008176595
55	0xbc2bc1fc	-0.010483261
56	0xbb06d4ac	-0.002057354
57	0x3b7063ee	0.0036680656
58	0xbb1183ea	-0.002220387
59	0x3b427f99	0.0029678105
60	0x3e2721a7	0.16321431
61	0xbe37ae0d	-0.17937489
62	0xbd297f63	-0.04138125
63	0x3e03170e	0.12801763
64	0xbbad7d48	-0.0052944757
65	0xbc98ba05	-0.018643389
66	0x3e311d3c	0.17296308
67	0x3d28a20d	0.04117017
68	0x3c84df25	0.016219685
69	0x3c511a5c	0.012762632
70	0xbd6e5d20	-0.05819428
71	0xbd831b12	-0.064016476
72	0xbcc69a39	-0.024243461
73	0x3e4f04aa	0.20216623
74	0xbeeb4358	-0.45949817
75	0xbd8b0d14	-0.06789604
76	0xba9458ab	-0.0011317929
77	0x3dac2567	0.084055714
78	0xbbe5fe7a	-0.0070188614
79	0x3ca89c11	0.02058223
80	0x3c6586ab	0.014009158
81	0x3c2ef23c	0.01067787
82	0xbb76a5d6	-0.0037635467
83	0x3b422df3	0.0029629439
84	0x3f3d554c	0.7395828
85	0x3ef7d08e	0.48401302
86	0xbe72290f	-0.23648475
87	0xbd880489	-0.0664149
88	0x3ea59b7e	0.32345194
89	0xbf8b3d26	-1.0878036
90	0xbd416344	-0.047213808
91	0x3d47ed02	0.048810013
92	0x3d56ecc8	0.052471906
93	0x3b9d1dc1	0.0047948067
94	0x3b93e176	0.004512961
95	0x3df74a64	0.12074736
96	0xbca7d443	-0.020486956
97	0xba0717bb	-0.00051533774
98	0x3bd3419e	0.006447031
99	0xc01987ff	-2.3989255
100	0xbecd1ad0	-0.4005952
101	0x3ec09501	0.3761368
102	0xbe46c256	-0.19410071
103	0x3f51ad24	0.81904817
104	0x3e59ca09	0.21268477
105	0x3bd3a0db	0.0064583845
106	0xbd38c5de	-0.045110576
107	0xbc4a1b6d	-0.01233564
108	0x3bee68a9	0.00727566
109	0xbc8f28d2	-0.01747552
110	0xbc763d23	-0.015029225
111	0x3cb79f05	0.022414694
112	0x3c0aa27c	0.008461591
113	0xbaea36fa	-0.0017869167
114	0xbac153be	-0.0014749689
115	0xbc09b0e4	-0.00840399
116	0x3b8ac62a	0.004235049
117	0x39a1c502	0.00030855095
118	0xbba62979	-0.005070862
119	0x3bc38960	0.005967304
120	0xbc83575b	-0.016032865
121	0xbd04d7c9	-0.03243235
122	0xbc54e9c3	-0.012995186
123	0xbca4bcba	-0.020109523
124	0xbc74b3d2	-0.014935451
125	0x3cc21b44	0.023694642
126	0x3c1cad1d	0.009562758
127	0x3ad4eda4	0.0016245139
128	0x3b401288	0.002930792
129	0xba35186e	-0.00069082424
130	0xbc889f46	-0.01667751
131	0x3c52d41e	0.0128679555
132	0x3b811bcd	0.0039400817
133	0x36b8e110	5.509828e-06
134	0xba27816b	-0.0006389829
135	0x3c3b5566	0.011433935
136	0x3d1342fd	0.035952557
137	0xbd620fcc	-0.055190846
138	0xbb0b27f7	-0.0021233538
139	0x3cc73582	0.024317507
140	0x3d6d636f	0.057956155
141	0xbc471978	-0.012152068
142	0x3bcce703	0.0062531247
143	0xbbaded2b	-0.0053078136
144	0xbe0d1184	-0.13776213
145	0x3f2c2d2f	0.67256445
146	0x3f23cfc7	0.6398892
147	0x3e219bd7	0.15782104
148	0x3e8e8828	0.27838254
149	0xbf5053f3	-0.81378096
150	0xbd158950	-0.036507905
151	0x39bd5ebb	0.0003611947
152	0x3c3b2a03	0.011423591
153	0x3ab178a4	0.0013539982
154	0x3d29f5d7	0.041494217
155	0x3ceaf68d	0.028682018
156	0x3d11583f	0.03548455
157	0xbd059e30	-0.032621562
158	0xbb9f3849	-0.0048590046
159	0xbc5f11fe	-0.0136151295
160	0xbc89255b	-0.016741445
161	0xbb0aeb09	-0.002119722
162	0x3aa70784	0.0012743329
163	0x3be76fcf	0.007062889
164	0x3bfb7f56	0.0076750917
165	0xbd3348a9	-0.043770466
166	0xbc4dbdb0	-0.012557432
167	0x3c490f59	0.012271726
168	0xbb6670e6	-0.0035162508
169	0x3d378b15	0.044810373
170	0x3d2d81ba	0.042360045
171	0x3d0ccfd8	0.034377903
172	0xbc890177	-0.016724331
173	0xbc8e23b9	-0.017351018
174	0xbb917239	-0.004438665
175	0xbc28aa57	-0.010294518
176	0xbafad582	-0.0019137117
177	0xbb66272c	-0.0035118563
178	0xbb94f58c	-0.004545873
179	0x3bfc51f1	0.007700198
180	0x3c748e22	0.014926465
181	0xbd0de79d	-0.03464471
182	0xbd0bd74b	-0.034140866
183	0xbc6c1d54	-0.014411289
184	0x3dd8b1e1	0.10580803
185	0xbdb5c509	-0.08875472
186	0x3e5131ca	0.2042915
187	0xbc722991	-0.014780418
188	0x3dc121da	0.09430285
189	0xbc3e4b2f	-0.011614605
190	0xbb83bc97	-0.0040202844
191	0x3cf594fa	0.029978264
192	0xbd5b9a66	-0.053614043
193	0xbcbd8522	-0.023134772
194	0xbb22519b	-0.002476788
195	0xbd127d88	-0.035764247
196	0xbd0a1027	-0.03370681
197	0x3d2dce3b	0.042433005
198	0x3c033a21	0.0080094645
199	0x3c5312aa	0.012882868
200	0xbcf5cca0	-0.0300048
201	0x3cfaa23e	0.030594941
202	0xbce8a05a	-0.028396774
203	0xbd4495a3	-0.047994267
204	0xb956f44a	-0.00020499635
205	0xbca6f21a	-0.020379115
206	0xbcbf4048	-0.023346081
207	0x3a9ed6a6	0.0012118414
208	0xbc0bbb1a	-0.008528495
209	0x3c4aad42	0.012370409
210	0xbcda05f3	-0.026614165
211	0xbe6ea1f3	-0.23303966
212	0x3e9946b5	0.29936758
213	0x3d248948	0.040169984
214	0xc043b987	-3.0581987
215	0x3d81ee08	0.06344229
216	0x3ea11b06	0.3146593
217	0xbd59ef87	-0.053206947
218	0xbd5aa0dd	-0.053376067
219	0xba7eed8b	-0.0009724728
220	0x3b5ccde2	0.0033692052
221	0xbce6ff24	-0.028197832
222	0x3b02f1a1	0.0019980448
223	0xbb84e3a8	-0.004055459
224	0x3b6a1ebb	0.0035723883
225	0xbf0a7947	-0.54091305
226	0x3e1e15df	0.1543803
227	0xbf1ebd9a	-0.6200806
228	0x3b267617	0.0025399977
229	0x3bf3fc01	0.0074458127
230	0xbc3731c3	-0.011181298
231	0xbd0d52df	-0.03450286
232	0x3bee96bd	0.007281153
233	0x3b879e99	0.0041387794
234	0xbe7b74cc	-0.24556273
235	0xbea5961f	-0.32341096
236	0x3d06eefc	0.032942757
237	0x3c5789f7	0.013155452
238	0xbb9c995c	-0.004779024
239	0xbba2790c	-0.0049582776
240	0x395720bc	0.00020516192
241	0xbdd86ffa	-0.10568233
242	0xbc231f24	-0.009956155
243	0x3bb36e30	0.005475782
244	0xbd562291	-0.05227906
245	0x3cbabcb9	0.022795068
246	0x3d0e7f3a	0.0347893
247	0xbb36a689	-0.0027870259
248	0x3cb9ba6b	0.022671899
249	0xbc6f3cce	-0.014601899
250	0xbcd725d3	-0.026263153
251	0x3c01d33a	0.0079238955
252	0x3c6c7c23	0.014433893
253	0xbc89eb04	-0.016835697
254	0x3b84a1bd	0.004047601
255	0xb9eb0f60	-0.00044834148

fc1.bias f4 [128]
0	0xbe9621a7	-0.2932255
1	0x3e5cdc11	0.21568324
2	0x3ce2ced1	0.027686508
3	0x3ee2df4b	0.44310984
4	0xbcd914f4	-0.026499249
5	0xbe7df91c	-0.24802059
6	0x3ea64a7f	0.3247871
7	0x3c65f92c	0.014036458
8	0xbcc42f30	-0.023948282
9	0x3d1c83da	0.03821168
10	0xbd129a6e	-0.035791807
11	0xbd35d131	-0.044388954
12	0x3cb74bfb	0.022375097
13	0xbc68256c	-0.014169078
14	0x3fc39002	1.5278323
15	0xbebf076c	-0.3731035
16	0xbce5ff66	-0.028075885
17	0x3a0858ec	0.00052012387
18	0xbd463230	-0.048387706
19	0xbcc46298	-0.023972794
20	0x3dedff4d	0.116209604
21	0xbce28bc8	-0.027654544
22	0x3c295fb2	0.010337757
23	0x3d3ca6af	0.0460574
24	0xbeaf4d6d	-0.3423876
25	0x3ebab6e4	0.3646766
26	0xbc65c232	-0.014023351
27	0xbd069bf4	-0.032863572
28	0xbf5bea53	-0.85904425
29	0x3d26e1b1	0.04074258
30	0xbd5b623a	-0.053560473
31	0xbe159c57	-0.1461042
32	0x3f877436	1.058234
33	0xbd0a4884	-0.033760563
34	0x3d28e095	0.041229803
35	0xbc602fb8	-0.013683252
36	0xbd16475f	-0.03668916
37	0x3fab1ec9	1.336877
38	0xbd142a24	-0.036173
39	0x3e0724f1	0.13197686
40	0x3ce5b610	0.028040916
41	0xbda9e253	-0.08295121
42	0xbe8e5d11	-0.2780538
43	0x3d3db984	0.0463195
44	0xbdcddde5	-0.10052089
45	0x3d0b0dc7	0.033948686
46	0xbe5d4748	-0.21609223
47	0xbe89fecf	-0.26952216
48	0x3b94972f	0.004534624
49	0xbc0625b9	-0.008187705
50	0xbcc14d7e	-0.023596521
51	0xbe45ccfd	-0.19316478
52	0xbc63eb45	-0.013911073
53	0xbc9c9afc	-0.019116871
54	0x3ef99955	0.48749796
55	0xbe3510fa	-0.17682257
56	0xbd4d4af3	-0.050120305
57	0xbce80260	-0.028321445
58	0xbebc8993	-0.3682371
59	0xbd70ae54	-0.058760002
60	0xbd1bdd39	-0.03805277
61	0xbe94941f	-0.29019257
62	0xbccf03d6	-0.025270384
63	0xbccb7636	-0.02483664
64	0x3dc073f2	0.09397115
65	0x3d1a3bb0	0.03765458
66	0xbbe9f2ef	-0.0071395556
67	0x3e2de36b	0.16981284
68	0xbd00306d	-0.031296182
69	0x3e501efd	0.20324321
70	0x3f0eb7e6	0.55749357
71	0xbd2b081a	-0.041755773
72	0x3e48eb04	0.19620901
73	0x3d09af9a	0.033614732
74	0xbd39b28d	-0.045336295
75	0xbe8551b9	-0.26038912
76	0xbdb6463d	-0.08900116
77	0xbe6cff05	-0.23144157
78	0xbd0ae0d3	-0.033905815
79	0x3d18da46	0.037317537
80	0x3ee8a021	0.4543467
81	0xbb900ca5	-0.0043960386
82	0xbfd88661	-1.6916009
83	0xbd9892fe	-0.074499115
84	0x3f8decf2	1.1087935
85	0xbcfc57d0	-0.030803591
86	0x3ce297f5	0.02766035
87	0x3d96a521	0.073557146
88	0xbbcdb555	-0.00627772
89	0x3d2254a7	0.039631512
90	0x3c2cb686	0.010541564
91	0x3db3bce6	0.08776264
92	0x3f68c773	0.90929335
93	0xba64cce1	-0.0008728039
94	0xbe74440b	-0.23854081
95	0x3cc06658	0.023486301
96	0xbd1c5fc4	-0.038177267
97	0xbc8c17af	-0.017101137
98	0xbe2b413c	-0.16724104
99	0x3d35e104	0.044404045
100	0xbc17db70	-0.009268627
101	0x3f5d646a	0.86481345
102	0xbd49d40c	-0.04927449
103	0xbe12eddf	-0.14348553
104	0xbcbd23c6	-0.023088347
105	0x3c521b0a	0.012823829
106	0x3d9a140e	0.075233564
107	0x3cc05570	0.02347824
108	0x3c9508bc	0.018192641
109	0xbf4b3d68	-0.79390574
110	0xbcde92d1	-0.027169617
111	0x3ed231e8	0.410537
112	0x3d02b0fe	0.031907074
113	0xbcf3a6de	-0.029742654
114	0x3eeb9dd3	0.46018848
115	0xbdd6a5e8	-0.10480863
116	0xbe716b91	-0.2357619
117	0x3d240a6e	0.04004901
118	0xbeba13da	-0.3634327
119	0x3e6c4a9a	0.23075333
120	0xbe0f9d1a	-0.14024773
121	0xbd2d16fc	-0.042258248
122	0xbdf40131	-0.1191429
123	0xbf2965a3	-0.6617071
124	0xbe6fc079	-0.23413266
125	0xbb54233a	-0.003236963
126	0xbdd80ce5	-0.105493344
127	0x3d55070a	0.052008666

fc2.weight f4 [128, 128]
0	0xbe1d0062	-0.15332177
1	0xbe1b66b8	-0.15175903
2	0x3ec2db27	0.38057825
3	0x3f65c728	0.89757013
4	0x3d223f45	0.03961112
5	0x3ddade19	0.10686893
6	0xbca4c002	-0.020111088
7	0x3ae38bb8	0.0017360365
8	0x3c342d15	0.0109970765
9	0x3ea8c557	0.32963058
10	0x3c32fe01	0.010924817
11	0x3c68b5bf	0.014203488
12	0xbdc18cab	-0.094506584
13	0x3c0ed1e0	0.00871703
14	0x3e27825a	0.16358319
15	0x3e8df003	0.27722177
16	0x3d179083	0.03700305
17	0x3a39fa73	0.000709451
18	0x3c2bb31d	0.010479716
19	0x3d717b59	0.058955524
20	0xbde99482	-0.11405279
21	0x3d180b24	0.03712
22	0x3d0928ae	0.03348606
23	0xbd3f0086	-0.04663136
24	0xbb860242	-0.0040896246
25	0x3d6d155c	0.057881698
26	0x3ae5362c	0.0017487458
27	0xbdc8bc3f	-0.0980153
28	0x3d2a91e6	0.041643046
29	0xbc0519b2	-0.008123802
30	0xbb2de696	-0.0026535145
31	0xbe6d1b0f	-0.23154853
32	0xbc88c820	-0.01669699
33	0x3c4beaa7	0.012446082
34	0xbbbeee3f	-0.005826741
35	0xbc43f1e9	-0.011959531
36	0xbbfce9e6	-0.0077183126
37	0xbdda806c	-0.10669026
38	0x3cecb149	0.02889313
39	0xbc32f22b	-0.010921995
40	0xbd5b69ff	-0.053567883
41	0x3b96899f	0.0045940424
42	0xbf51f39f	-0.8201236
43	0x3b790806	0.0037999167
44	0x3e8c6b84	0.27425778
45	0xbb9b1c24	-0.0047335792
46	0xbe3ad480	-0.18245125
47	0xbcca6a75	-0.024708966
48	0x3b1c73aa	0.0023872652
49	0x3bfe390f	0.0077582668
50	0xbdab026e	-0.08350073
51	0x3e6c09b6	0.2305058
52	0x3c2ac58c	0.010423075
53	0x3c567eb3	0.013091731
54	0xbdaa61a0	-0.08319402
55	0x3d077e2f	0.033079322
56	0x3cf8f0e8	0.03038831
57	0x3cd66d11	0.026175054
58	0xbe617a98	-0.22019422
59	0x3d1f404b	0.038879674
60	0x3d5969d0	0.053079426
61	0xbeb96493	-0.36209545
62	0x3ba41aca	0.0050080763
63	0x3cfaf5c3	0.030634766
64	0xbe021de9	-0.12706722
65	0xbcd2e537	-0.025744064
66	0x3e573e6e	0.21019909
67	0x3e56097e	0.20902058
68	0x3b5811a6	0.0032969504
69	0x3e77581d	0.24154706
70	0xbe272142	-0.1632128
71	0x3d5a0e68	0.053236395
72	0x3dd6066a	0.10450442
73	0x3a5f8f58	0.0008528135
74	0xbe8d97ff	-0.27655026
75	0xbd97ed83	-0.07418349
76	0x3de926df	0.11384367
77	0x3df1194d	0.11772404
78	0x3dc8095a	0.09767409
79	0xbd9d8a57	-0.07692402
80	0xbe763ec4	-0.2404738
81	0x3c09cc97	0.008410594
82	0xbd43439f	-0.04767191
83	0x3e8de37f	0.27712628
84	0xbf32a240	-0.69778824
85	0x3c13e83f	0.00902754
86	0xbd9992a2	-0.07498671
87	0xbdfdd618	-0.12394351
88	0x3d044847	0.03229549
89	0x3c1a43fa	0.009415621
90	0xbd2e7048	-0.04258755
91	0x3e74ee9d	0.23919149
92	0x3dc4a205	0.09601215
93	0xbb0c7dc8	-0.0021437276
94	0xbc92a9db	-0.017903259
95	0xbdd8769a	-0.105694965
96	0x3cf17c00	0.029478073
97	0xbb69642a	-0.003561268
98	0xbf289fd0	-0.65868855
99	0xbca83608	-0.020533577
100	0x3b9a6e8d	0.0047128857
101	0xbf26b620	-0.6512165
102	0x3c9b7904	0.018978603
103	0xbdee4def	-0.116359584
104	0x3d49cec1	0.04926944
105	0x3b20abb7	0.0024516413
106	0x3b41024a	0.0029450827
107	0x3b5aecad	0.003340523
108	0xbe06d702	-0.13167956
109	0xbe57fe95	-0.21093209
110	0x3ae28c36	0.0017284218
111	0xbefc3979	-0.49262598
112	0xbc81b037	-0.015831096
113	0x3d4e1f0e	0.050322585
114	0x3e19fda7	0.15038167
115	0x3d39bb4d	0.04534464
116	0x3efd6469	0.4949067
117	0x3c83bd4d	0.016081477
118	0xbe4e09b0	-0.20120883
119	0x3eb14595	0.346234
120	0x3e09050c	0.13380831
121	0x3d826ec7	0.06368785
122	0xbee6bdfe	-0.45066828
123	0xbd28745d	-0.041126598
124	0xbed2e44e	-0.41189808
125	0xbd19774a	-0.03746728
126	0x3daa63d7	0.08319824
127	0xbcf7e40b	-0.030260107
128	0xbe55714d	-0.20844002
129	0x3e34e2b5	0.17664607
130	0xbdd51e9a	-0.104062274
131	0x3eba24d2	0.36356217
132	0x3db4c236	0.08826105
133	0x3e8d6d31	0.2762237
134	0xbe8250cf	-0.25452277
135	0xbca7dfbe	-0.02049243
136	0xbc3d8ab5	-0.011568715
137	0x3dffa571	0.12482727
138	0xb9fbbeea	-0.00048016693
139	0xbcd4904d	-0.025947714
140	0x3b2dc1b6	0.0026513166
141	0xbd529630	-0.05141276
142	0x3ea33200	0.31874084
143	0x3ed00faa	0.4063695
144	0xbd2f2d8b	-0.042768043
145	0xba8f0347	-0.0010911011
146	0xbcf05d6f	-0.029341428
147	0xbcecd3b2	-0.028909538
148	0xbe27079f	-0.16311501
149	0xbd00d2d8	-0.031451076
150	0xbcb47cdc	-0.022032194
151	0x3d0e9530	0.034810245
152	0x3ed424e4	0.41434395
153	0x3d48cf52	0.04902584
154	0x3b8066d3	0.0039185076
155	0xbca2e594	-0.019884862
156	0x3fa9b2df	1.3257712
157	0x3c5de5ed	0.013543588
158	0xbe8175fb	-0.25285324
159	0x3ea8c14a	0.32959968
160	0xbe495347	-0.19660674
161	0xbd7724ea	-0.06033794
162	0xbb682d7f	-0.0035427508
163	0x3d140456	0.036136948
164	0x3b8633f1	0.0040955474
165	0x3e3fd572	0.18733767
166	0xbcea7a31	-0.028622719
167	0x3acc1f51	0.0015573298
168	0xbd72d1a0	-0.059281945
169	0xbdc621e7	-0.09674435
170	0xbf406743	-0.75157565
171	0x3d1db31d	0.038500894
172	0xbc9185cf	-0.017764
173	0xbb83bb92	-0.004020163
174	0xbd881938	-0.06645435
175	0x3d846e1e	0.06466316
176	0x3a715c19	0.0009207144
177	0xbc404894	-0.011736054
178	0x3a447c10	0.00074952934
179	0x3d934ac4	0.07191995
180	0xbc1d3e18	-0.009597324
181	0xbbce2d2f	-0.0062920074
182	0x3f113546	0.56721914
183	0x3e21f926	0.15817699
184	0xbd18820b	-0.037233394
185	0xbccf5b5a	-0.025312115
186	0xbe3d0b93	-0.18461446
187	0xbe6071b0	-0.21918368
188	0xbd7daabd	-0.061930407
189	0x3e6bf3f5	0.23042281
190	0xbc3a29cb	-0.011362503
191	0xbcb4ac41	-0.022054793
192	0xbead2a32	-0.33821255
193	0x3c9e0428	0.019289091
194	0x3ed37d1a	0.41306382
195	0xbf1da1a6	-0.6157478
196	0x3bd96fd7	0.006635647
197	0x3de03535	0.109476484
198	0x3d881d84	0.06646255
199	0xbd6f0656	-0.05835565
200	0x3e91a9ee	0.2844996
201	0xbcd85fa9	-0.026412802
202	0xbe1c545f	-0.1526656
203	0x3c5d72c7	0.013516135
204	0xbbf127a9	-0.007359464
205	0x3c86d5e0	0.016459405
206	0x3c14564e	0.00905378
207	0xbbbcdaf6	-0.005763407
208	0xbe442007	-0.19152842
209	0xbbd0531a	-0.0063575627
210	0x3ee69e3a	0.45042592
211	0x3e14f974	0.14548284
212	0x3dac1102	0.084016815
213	0xbc2683fd	-0.010163304
214	0x3d2b4d5d	0.041821826
215	0x3da62d28	0.081140816
216	0xbc97dc87	-0.018537773
217	0x3c983338	0.01857911
218	0xbc9c86d3	-0.019107258
219	0x3ea65610	0.32487535
220	0x3e67bcb4	0.22630578
221	0x3b3b8c63	0.0028617613
222	0x3d0ea2eb	0.03482334
223	0x3d49cf93	0.049270224
224	0xbc88d3b2	-0.016702507
225	0x3c9cd53d	0.019144649
226	0x3ea48dc1	0.321394
227	0x3ce3360c	0.027735732
228	0xbc44e171	-0.01201664
229	0x3edabdb1	0.42722848
230	0xbd419f97	-0.047271337
231	0xbd85381a	-0.06504841
232	0xbd4a60a8	-0.049408585
233	0xbcbf4a51	-0.023350867
234	0xbe28e721	-0.16494419
235	0xbc235c5d	-0.009970752
236	0xbd74a15a	-0.05972419
237	0xbfb3bd2b	-1.4042104
238	0xbbc7a248	-0.0060923435
239	0xbf9562b7	-1.167075
240	0x3c1bb6a0	0.00950399
241	0xbccc0834	-0.024906255
242	0xbe7ebde2	-0.24877122
243	0xbd562566	-0.05228176
244	0x3c5ea63a	0.013589436
245	0x3cac9821	0.021068634
246	0x3e6ba628	0.23012602
247	0x3c46ad14	0.012126226
248	0xbd3152a1	-0.04329169
249	0xbcdb925d	-0.02680319
250	0xbdd6f266	-0.104954526
251	0x3e2c40aa	0.16821542
252	0xbec66b02	-0.38753515
253	0x3bd06a3e	0.0063603213
254	0x3a486857	0.00076449424
255	0x3d84033c	0.064459294

fc2.bias f4 [128]
0	0xbcb69da7	-0.022291971
1	0xbc821566	-0.015879344
2	0x3e77f2e1	0.24213745
3	0xbe7b509e	-0.24542472
4	0xbcc9afa8	-0.024619892
5	0xbdddff76	-0.10839741
6	0x3ebc6ee4	0.36803353
7	0x3f238d21	0.6388722
8	0x3e840369	0.25783852
9	0x3d91a861	0.07112194
10	0xbe9bd075	-0.30432478
11	0x3f1d0214	0.61331296
12	0x3e1d832b	0.15382068
13	0xbf8c2782	-1.0949557
14	0xbe18656e	-0.14882442
15	0xbd906cdc	-0.07052013
16	0x3e601c96	0.21885905
17	0xbe627e49	-0.22118486
18	0xbdf30757	-0.11866634
19	0xbdc03031	-0.09384192
20	0x3f09541d	0.5364397
21	0xbcb1d50a	-0.02170803
22	0x3eb6c992	0.3570066
23	0x3eff6e42	0.49888808
24	0xbd87ca28	-0.06630355
25	0xbdb24aad	-0.087056495
26	0x3e081eee	0.13293049
27	0x3eb4cf3b	0.35314354
28	0x3d905a06	0.070484206
29	0xbd97ea4b	-0.07417735
30	0xbe8ba304	-0.2727281
31	0xbf33d955	-0.702535
32	0xbf045af9	-0.51701313
33	0x3f68fb35	0.9100831
34	0xbea9be15	-0.33152834
35	0xbeff4b14	-0.49861968
36	0xbf05ffa1	-0.52343184
37	0x3f084799	0.5323425
38	0x3d2d7ac7	0.042353418
39	0xbf0b7810	-0.54480076
40	0xbdd32559	-0.10309858
41	0xbcbd398c	-0.02309873
42	0x3d8fb892	0.07017626
43	0xbd25a8d1	-0.0404442
44	0xbdd894d4	-0.10575262
45	0x3e9a2e7b	0.30113587
46	0x3fabed47	1.3431786
47	0x3dcb74c3	0.0993438
48	0x3dedd23b	0.11612364
49	0xbde53316	-0.111913845
50	0xbf5eb22c	-0.8699062
51	0x3e2d7949	0.16940798
52	0x3eb3c06a	0.35107738
53	0x3dc81ea3	0.097714685
54	0xbf909fed	-1.1298805
55	0xbea23802	-0.31683356
56	0xbe09cc05	-0.13456734
57	0x3cc595ef	0.024119345
58	0x3e578ca4	0.21049744
59	0xbdbae067	-0.091248326
60	0xbd768a2d	-0.06019037
61	0xbd85ab39	-0.06526799
62	0xbe178150	-0.14795423
63	0x3df321cb	0.1187168
64	0xbdec0688	-0.11524683
65	0x3ee200ab	0.44141135
66	0x3f9397f3	1.1530746
67	0xbe470eea	-0.19439283
68	0x3f1bc742	0.6085092
69	0xbbf8f31f	-0.0075973417
70	0x3f8901a2	1.0703623
71	0xbf27cd33	-0.65547484
72	0x3db91eab	0.090390526
73	0x3d8e9e80	0.06963825
74	0x3db4471f	0.08802628
75	0x3e855486	0.2604105
76	0xbdf80c80	-0.12111759
77	0x3f2a7447	0.66583675
78	0xbf512c40	-0.81708145
79	0xbec81ee2	-0.39086062
80	0x3d95dae4	0.07317141
81	0xbdc5080b	-0.09620675
82	0xbd2ed0ba	-0.042679526
83	0x3f448a20	0.7677326
84	0xbed48c7d	-0.41513434
85	0xbdabe2cb	-0.08392867
86	0xbd197a41	-0.037470106
87	0xbe4f030e	-0.20216009
88	0xbd942c1f	-0.07234978
89	0xbdbbb351	-0.09165061
90	0xbeb9c595	-0.36283556
91	0x3e741ec6	0.23839864
92	0xbf898207	-1.0742806
93	0xbf315e56	-0.6928457
94	0xbe05fb37	-0.13084112
95	0x3c2b135f	0.01044163
96	0x3eb47095	0.35242143
97	0x3d26bbed	0.040706564
98	0xbd6b4b5e	-0.057444923
99	0x3eaf199f	0.34199235
100	0xbec031cb	-0.3753799
101	0xbde9b9bd	-0.1141238
102	0x3e181913	0.14853315
103	0xbd69dfea	-0.057098307
104	0xbfa12172	-1.2588332
105	0xbe25a6b4	-0.16176873
106	0xbe60a8ab	-0.21939342
107	0xbe80916d	-0.2511095
108	0x3f3fd0f5	0.7492822
109	0x3f49efbd	0.78881437
110	0x3d4e3687	0.05034497
111	0x3eb6e524	0.35721695
112	0x3e48a1c4	0.19592959
113	0xbdd97ca9	-0.1061948
114	0xbe0075d4	-0.12544948
115	0xbd9b9310	-0.07596409
116	0x3edfcf4f	0.4371285
117	0xbe2a303e	-0.16619965
118	0x3f198a45	0.5997661
119	0x3f180993	0.5938961
120	0xba95416c	-0.0011387295
121	0xbe307e77	-0.17235743
122	0xbef57d29	-0.47947052
123	0xbe29fae2	-0.1659961
124	0x3eb0eb05	0.34554306
125	0xbce4f335	-0.027948001
126	0x3d5d7eab	0.054075878
127	0x3d05dc12	0.03268058

fc3.weight f4 [128, 128]
0	0x3e286578	0.16444957
1	0xbec571d8	-0.38563418
2	0xbdcdd57d	-0.10050485
3	0x3cdba418	0.026811644
4	0xbe12ea51	-0.14347197
5	0x3e81c7e0	0.25347805
6	0x3e866ebe	0.26256365
7	0xbe76e5bb	-0.24111073
8	0x3e05ee68	0.13079226
9	0x3c628c08	0.013827331
10	0x3e0eede8	0.13957942
11	0x3d2d2f70	0.042281568
12	0x3d9240ea	0.071412876
13	0x3ddef65f	0.10886835
14	0x3d90e92a	0.070757225
15	0xbd72dc8e	-0.05929237
16	0xbd4a6f3f	-0.0494225
17	0x3ea03088	0.31287026
18	0xbde1e8bc	-0.11030719
19	0x3eec82ed	0.46193638
20	0xbdcefe7b	-0.10107132
21	0xbd324f06	-0.043532394
22	0xbeaa8d68	-0.3331101
23	0x3d4eae90	0.050459445
24	0x3c8df75c	0.017329864
25	0x3e393af3	0.18088894
26	0xbdccfc22	-0.10009028
27	0xbe671e96	-0.22570261
28	0x3d15b928	0.036553532
29	0x3e0d982c	0.1382758
30	0x3e5747ae	0.21023437
31	0xbe77b3ff	-0.24189757
32	0x3ea4f22a	0.32216007
33	0x3ef132e2	0.47109133
34	0x3de75075	0.11294643
35	0xbd67c1c4	-0.056581274
36	0xbed1fcde	-0.41013235
37	0xbdb9605f	-0.090515845
38	0x3d120a2a	0.035654224
39	0xbea3875a	-0.31939203
40	0x3ea74c2d	0.32675305
41	0x3d8e528b	0.069493376
42	0xbe473006	-0.19451913
43	0xbe46374a	-0.19357029
44	0x3d525ec3	0.051359903
45	0xbe93da09	-0.28877285
46	0x3e661af7	0.22471224
47	0xbe13f62c	-0.14449376
48	0xbe06e5b4	-0.13173562
49	0x3e43338b	0.19062631
50	0xbdaecf35	-0.08535615
51	0x3d266ab0	0.04062909
52	0xbe530feb	-0.20611541
53	0xbcab2c31	-0.020895096
54	0x3e202183	0.15637784
55	0xbd245265	-0.04011764
56	0x3e13d13a	0.14435282
57	0xbe21f41b	-0.15815775
58	0xbe35904a	-0.17730823
59	0x3d9ab9c1	0.07554961
60	0xbd6adff0	-0.05734247
61	0xbe6f2cde	-0.23356959
62	0x3e51bae3	0.20481448
63	0x3e39fb2c	0.1816222
64	0x3dcfa58d	0.10138998
65	0xbe280ef3	-0.16411953
66	0x3f24d3ba	0.6438557
67	0x3c4b9060	0.012424558
68	0x3e699844	0.22811991
69	0x3eb11a4a	0.3459037
70	0x3ea4551b	0.3209618
71	0x3b923caa	0.004462798
72	0xbe3185cf	-0.173362
73	0xbe46277b	-0.19350998
74	0x3e9936d2	0.29924637
75	0xbdc89825	-0.09794644
76	0x3dea3fba	0.11437936
77	0x3e8dd245	0.27699485
78	0x3f28589e	0.6576022
79	0xbdbc2429	-0.091865845
80	0x3ebaa8cf	0.36456916
81	0xbdbd5ad9	-0.092458434
82	0xbdc699d8	-0.09697312
83	0x3e2e49cb	0.17020337
84	0xbede32e4	-0.433982
85	0x3d833323	0.06406238
86	0x3dc99e3d	0.09844635
87	0xbd70fba7	-0.058833744
88	0xbe8fb550	-0.28068018
89	0x3e42cff3	0.19024639
90	0x3e1ac369	0.15113606
91	0xbe59326d	-0.21210642
92	0xbd9287af	-0.07154786
93	0x3cf72b7f	0.030172108
94	0xbe897e6e	-0.2685427
95	0xbde9e300	-0.1142025
96	0xbdd5f055	-0.1044623
97	0x3d7ce709	0.06174377
98	0xbe79e7c7	-0.24404822
99	0x3ddb523f	0.107090466
100	0xbe26c714	-0.1628688
101	0xbdb9d3c0	-0.09073591
102	0x3d34e9d8	0.044168323
103	0xbe1974fc	-0.14986032
104	0x3d42d00a	0.047561683
105	0xbc064f8b	-0.008197675
106	0xbe0acb3c	-0.1355409
107	0xbe4446e6	-0.1916767
108	0x3eb00be8	0.34384084
109	0xbe2953f7	-0.16535936
110	0xbde0d676	-0.10978405
111	0x3eb44f7c	0.35216892
112	0xbcea9cb4	-0.028639175
113	0xbe2bf7dd	-0.16793771
114	0x3e834bb5	0.25643697
115	0x3da25a5d	0.07927392
116	0xbe66a9db	-0.22525732
117	0xbe83de5d	-0.25755587
118	0x3ce5156b	0.027964314
119	0x3e9415af	0.28922793
120	0x3e488ec0	0.19585705
121	0x3ea56d28	0.32309842
122	0x3e06be23	0.13158469
123	0x3dcaa773	0.0989522
124	0x3cb2be08	0.02181913
125	0x3d7cdc3c	0.06173347
126	0x3eaae35e	0.33376592
127	0x3e0b4cfe	0.13603589
128	0x3ce58d66	0.028021526
129	0x3e07b76d	0.13253565
130	0x3b8181aa	0.0039522247
131	0xbd8cb032	-0.06869544
132	0x3d75da9b	0.06002293
133	0x3dd0890a	0.10182388
134	0x3cb87172	0.022515032
135	0x3dc1e1e3	0.094669126
136	0x3cc5da04	0.02415181
137	0x3dd57147	0.104219966
138	0xbdb087dd	-0.08619664
139	0xbcb750ac	-0.022377335
140	0xbd4646a6	-0.04840722
141	0xbce3e455	-0.027818838
142	0x3e4ac59b	0.19801943
143	0xbe3207a2	-0.17385724
144	0x3dafa4a7	0.08576327
145	0x3d7193fc	0.05897902
146	0x3d3a73f2	0.04552073
147	0x3caa9188	0.020821348
148	0x3d39deb8	0.045378417
149	0xbe1746c0	-0.14773083
150	0xbe129a9f	-0.14316796
151	0x3e0af402	0.13569644
152	0xbd1c06c4	-0.03809239
153	0xbe85d7dd	-0.26141253
154	0x3cacee59	0.021109747
155	0x3d873a9a	0.06602974
156	0xbd0a430f	-0.03375536
157	0xbcd4a5bb	-0.025957933
158	0xbd5bd62d	-0.05367105
159	0xbd875f49	-0.06609971
160	0xbc07b5a9	-0.008283057
161	0x3e9e6c57	0.30942032
162	0x3dd7b735	0.10532991
163	0x3dd3f203	0.103488944
164	0x3bc16abf	0.0059026177
165	0xbd672ea3	-0.05644096
166	0x3dbf7f7e	0.09350489
167	0x3d261cd9	0.040554855
168	0x3e28a03e	0.16467378
169	0xbce1ec1e	-0.02757841
170	0xbd8b845c	-0.06812355
171	0xbccd8d1d	-0.025091702
172	0x3c3803a5	0.011231338
173	0x3cfcd7ec	0.030864678
174	0xbe34af9a	-0.17645112
175	0x3cf1f0a1	0.029533686
176	0x3c31d0dc	0.010853019
177	0xbc5522f6	-0.013008824
178	0x3dab2edd	0.08358548
179	0x3d019c02	0.03164292
180	0x3cda552f	0.026651947
181	0xbd37044a	-0.044681825
182	0xbb99014f	-0.0046693454
183	0xbd1c3ac5	-0.038141984
184	0x3d33af39	0.043868277
185	0xbd70040c	-0.05859761
186	0xbd9d84f8	-0.076913774
187	0x3d35527c	0.044268116
188	0xbc87729b	-0.01653414
189	0x3daa7b3f	0.083242886
190	0x3cb792ad	0.022408808
191	0xba4f61c6	-0.0007910993
192	0xbdc028a7	-0.09382754
193	0x3d217953	0.039422344
194	0x3dbcfa92	0.0922748
195	0xbda823ab	-0.08209928
196	0xbe75bd37	-0.23997961
197	0xbd82108b	-0.063508116
198	0xbcc6b0b1	-0.024254175
199	0xbd73a3fa	-0.059482552
200	0xbd192989	-0.037393127
201	0xbde9ba21	-0.114124544
202	0xbd4b67e3	-0.04965962
203	0x3c440713	0.011964577
204	0xbd5aee0a	-0.053449668
205	0xbde60d68	-0.11233026
206	0xbda96672	-0.08271493
207	0xbb77be7d	-0.003780275
208	0xbd0f2f10	-0.03495699
209	0x3c2cd415	0.010548611
210	0xbaf54f47	-0.0018715643
211	0x3ca039c5	0.019558797
212	0x3e30a05e	0.17248675
213	0x3d3fc021	0.046814088
214	0xbd86e2b8	-0.06586212
215	0xbcc2b7d5	-0.023769299
216	0xbd98c131	-0.07458723
217	0x3d6efb12	0.058344908
218	0xbe0531b1	-0.13007237
219	0x3d5aface	0.053461842
220	0x3da8d8d9	0.082444854
221	0xbc888ed0	-0.01666966
222	0x3d0c12a8	0.03419748
223	0x3ae33c86	0.0017336763
224	0xbe06517d	-0.13117023
225	0x3d43b5eb	0.047780912
226	0x3b5ed7ca	0.0034003132
227	0x3d8af4b4	0.06784955
228	0x3dbcfe27	0.09228163
229	0xbd1f5469	-0.03889886
230	0xbd8effb3	-0.069823645
231	0xbe622d9f	-0.22087716
232	0x3dc4b29a	0.09604378
233	0x3d99345a	0.074806884
234	0xbe21fa26	-0.1581808
235	0x3d04c137	0.032410827
236	0x3d637c45	0.055538435
237	0xbd3127b8	-0.04325077
238	0x3d94fc08	0.07274634
239	0xbc8c1ac4	-0.017102607
240	0x3bea39a9	0.007147987
241	0xbd8da5e0	-0.06916404
242	0x3ddce270	0.10785377
243	0x3b0aae8c	0.0021161167
244	0x3c9540a1	0.018219294
245	0x3dad5745	0.08463911
246	0x3dab1363	0.08353307
247	0x3e0ae79d	0.13564916
248	0x3c511078	0.012760274
249	0xbd52b4e5	-0.051442046
250	0x3c48d468	0.012257673
251	0xbd80fc18	-0.06298083
252	0x3d0d550a	0.034504928
253	0x3dac202c	0.08404574
254	0x3d030a1c	0.031992063
255	0x3dd29866	0.10282974

fc3.bias f4 [128]
0	0xbdde6a19	-0.1086008
1	0x3e3bf1b2	0.18353918
2	0x3f3965a0	0.7242069
3	0x3e90edf0	0.28306532
4	0xbed6d33a	-0.41958028
5	0xbf654ce8	-0.89570475
6	0x3f83a9eb	1.028623
7	0xbf0d07db	-0.5509011
8	0x3f186c13	0.5953991
9	0xbd4b1836	-0.049583636
10	0xbda3314a	-0.079683855
11	0x3e5cc66e	0.2156007
12	0xbe988dc2	-0.29795653
13	0x3d1ed6ab	0.038778942
14	0xbf32b56c	-0.6980808
15	0xbe997083	-0.29968652
16	0xbd6478f5	-0.055779416
17	0xbf4c0be6	-0.79705656
18	0xbdf556c5	-0.119794406
19	0x3eb5f5de	0.35539144
20	0x39a2761a	0.0003098704
21	0x3d639782	0.05556441
22	0xbd14f1df	-0.03636348
23	0xbb0378c0	-0.0020060986
24	0x3e5b5db6	0.21422467
25	0xbf026d09	-0.50947624
26	0x3d6ee458	0.058323234
27	0x3f59ec2b	0.8512599
28	0xbd452128	-0.048127323
29	0xbef85ce2	-0.48508364
30	0x3ea5431e	0.3227777
31	0xbe0a6e9a	-0.13518754
32	0x3f1debe5	0.6168807
33	0x3f09fa05	0.53897125
34	0x3f3e1efc	0.7426603
35	0x3da22997	0.07918089
36	0x3e36c37e	0.17848012
37	0x3f622f32	0.88353264
38	0xbdaf41fb	-0.08557507
39	0xbe1ffefd	-0.15624614
40	0x3f440950	0.7657671
41	0x3e787125	0.24261911
42	0x3e15eb84	0.14640623
43	0xbf10e25c	-0.56595397
44	0xbfa284f8	-1.2696829
45	0xbe07d598	-0.13265073
46	0xbeff5ace	-0.49873966
47	0xbe229b24	-0.15879494
48	0x3e68c043	0.22729592
49	0x3d49ee32	0.049299426
50	0xbe7766b6	-0.24160275
51	0xbda06c5b	-0.07833167
52	0xbe8c1f14	-0.2736746
53	0xbe8de6a7	-0.27715036
54	0xbdb6f176	-0.08932774
55	0x3d207d0b	0.03918175
56	0x3e5723c7	0.21009742
57	0xbf1b7637	-0.60727257
58	0x3e882991	0.26594213
59	0xbdbe822c	-0.09302172
60	0x3e8fef38	0.28112197
61	0x3cb49c78	0.022047266
62	0x3d7950db	0.060868125
63	0xbd9ef226	-0.0776103
64	0x3e0275da	0.1274027
65	0xbd9fd222	-0.078037515
66	0xbeb8a611	-0.360642
67	0x3e8f10ae	0.27942413
68	0x3e0d44a8	0.13795722
69	0xbdcd1bf9	-0.10015101
70	0xbfa7f13c	-1.3120494
71	0x3dfc3813	0.12315383
72	0xbf727f4a	-0.9472548
73	0x3f1c7564	0.61116624
74	0x3e692a3e	0.2277002
75	0x3df10268	0.11768037
76	0x3d660c89	0.0561643
77	0x3dc9115d	0.09817765
78	0xbeede89b	-0.46466526
79	0xbe3ddb04	-0.18540579
80	0xbf9bfdc0	-1.2186813
81	0xbf0a8cec	-0.5412128
82	0x3e0e0136	0.1386765
83	0xbcc707de	-0.024295744
84	0xbd89de43	-0.06731846
85	0x3e3ef2c1	0.18647291
86	0x3ed736c3	0.42033967
87	0xbdd7c3e6	-0.105354115
88	0xbcee86af	-0.029116957
89	0x3d26aa09	0.040689502
90	0x3dda56bf	0.10661077
91	0x3d2a357d	0.041554917
92	0xbf531317	-0.82451004
93	0xbfaa1839	-1.3288642
94	0x3e44fa6b	0.19236152
95	0x3edc659d	0.43046275
96	0xbf1ce3ce	-0.612851
97	0x3ee175e7	0.44035265
98	0x3dd4f72a	0.10398705
99	0xbe1119df	-0.14170025
100	0x3ef3c69d	0.47612467
101	0x3adbce2e	0.001676982
102	0xbea77349	-0.32705143
103	0x3dfdbcd4	0.12389532
104	0xbe9cfad5	-0.3066012
105	0xbefef669	-0.4979737
106	0xbf9f24a5	-1.2433058
107	0xbbd1ac20	-0.0063986927
108	0xbe14c979	-0.1452998
109	0x3e6ef269	0.2333466
110	0x3dff8fd9	0.12478609
111	0x3deb663d	0.1149411
112	0x3ea7abec	0.32748353
113	0x3e733442	0.23750404
114	0xbe388b45	-0.18021877
115	0x3dd59a15	0.104297794
116	0x3f20a9ee	0.6275929
117	0xbddfe623	-0.10932567
118	0xbbcef2ee	-0.0063155806
119	0xbdfef28a	-0.124486044
120	0x3e1c4d24	0.15263802
121	0xbc81b077	-0.015831215
122	0xbf63c575	-0.8897317
123	0x3dca5540	0.098795414
124	0x3ca35149	0.01993622
125	0x3dc05195	0.093905605
126	0x3eb455d0	0.3522172
127	0x3d750728	0.059821278

fc4.weight f4 [128, 128]
0	0xb9c8caef	-0.0003829817
1	0xb930ce89	-0.00016861608
2	0x38aa6a63	8.126048e-05
3	0xba8013f5	-0.0009771573
4	0x39acf816	0.00032991235
5	0x39510587	0.00019933852
6	0xb91ef5c6	-0.00015159612
7	0x38617edf	5.376234e-05
8	0xb984a481	-0.00025299567
9	0x3992aacd	0.00027974547
10	0xba1937c9	-0.00058447995
11	0x3945fefc	0.00018882373
12	0x392c43b5	0.00016428421
13	0x3a7109f2	0.00091949024
14	0xb926fe70	-0.00015925779
15	0xb98ce46d	-0.0002687307
16	0xba523b45	-0.0008019696
17	0x39840c88	0.00025186338
18	0xbabd3f4c	-0.001443842
19	0x3a2c6ce2	0.0006577504
20	0xb8a008d8	-7.631042e-05
21	0x3ad42050	0.0016183946
22	0xba9502a6	-0.0011368587
23	0x3a42b795	0.00074278685
24	0x3986c3f9	0.00025704483
25	0xb818ec11	-3.6459478e-05
26	0x3a6bf5c3	0.000900116
27	0xb9deb420	-0.00042477343
28	0x3994b225	0.00028361488
29	0xb925b13f	-0.00015801656
30	0xb803ebd0	-3.145245e-05
31	0xb98ad72e	-0.00026481732
32	0xb93a7e36	-0.0001778536
33	0x390a6738	0.00013199158
34	0x3763f9ce	1.3588417e-05
35	0x39734468	0.00023199769
36	0xb83a3372	-4.4393768e-05
37	0xb8be4118	-9.072031e-05
38	0xb9ded9d5	-0.00042505437
39	0x39b4c25d	0.00034477087
40	0xb9995f68	-0.00029253517
41	0x386f86aa	5.7107456e-05
42	0xba51461b	-0.0007983164
43	0x380a04bd	3.2906177e-05
44	0x3a0f6e95	0.0005471495
45	0xb7d5f9f0	-2.5507965e-05
46	0xb86696f7	-5.497687e-05
47	0x3890df31	6.908028e-05
48	0x38953f5a	7.116674e-05
49	0xb9843f7d	-0.00025224304
50	0xba86c3fb	-0.0010281795
51	0xba94483c	-0.0011313031
52	0x39544569	0.00020243753
53	0xb9106fd6	-0.00013774572
54	0xb93d5dbf	-0.00018059368
55	0xbafda046	-0.0019350133
56	0xbaa2a9b0	-0.001241019
57	0xb98e0b6f	-0.0002709287
58	0xb9d13a62	-0.00039907085
59	0xb98c7a22	-0.00026793877
60	0xb928199d	-0.0001603127
61	0x3a563584	0.00081714266
62	0x3a5d2770	0.00084363576
63	0x3ae5e1fb	0.0017538661
64	0xb9c6bcfd	-0.0003790631
65	0x3a11fd76	0.00055690797
66	0x3a6ffc5c	0.0009154731
67	0x39cdce5b	0.00039254394
68	0x39848024	0.00025272474
69	0xb9e94229	-0.00044490516
70	0xb8805534	-6.119386e-05
71	0x3a85eaf3	0.0010217115
72	0x398587d7	0.00025468945
73	0x36964c53	4.4792337e-06
74	0x389fc14e	7.6177166e-05
75	0xba98121f	-0.001160208
76	0xba80d82e	-0.0009830052
77	0xba37411a	-0.0006990597
78	0x38ca117d	9.635368e-05
79	0x39cd8f9e	0.0003920765
80	0x390597be	0.00012740397
81	0x39c829aa	0.00038178015
82	0x39b2975b	0.00034063574
83	0xb83cc675	-4.500752e-05
84	0xb9a12e71	-0.00030742915
85	0x39f1f118	0.0004614673
86	0x39159e4a	0.00014268715
87	0x3a164af1	0.0005733213
88	0x3a95f767	0.001144153
89	0xb9a0d49c	-0.00030675984
90	0xb9d17b2d	-0.0003995536
91	0x398abfce	0.00026464317
92	0x398182d7	0.0002470228
93	0x399d539a	0.00030007662
94	0xb983271a	-0.000250154
95	0x39f25541	0.00046221356
96	0x38897809	6.555027e-05
97	0x39832d4c	0.00025020016
98	0xb8e1ac5b	-0.0001076094
99	0xbaffd4bd	-0.0019518357
100	0x39272660	0.00015940657
101	0x39ac120e	0.00032819848
102	0xb9cf8c75	-0.00039586765
103	0xba35849b	-0.0006924362
104	0x37f771db	2.9497713e-05
105	0x384534e3	4.7017715e-05
106	0x3988b56e	0.00026075117
107	0xb7b0fa66	-2.1097436e-05
108	0xb9e7bedc	-0.00044201955
109	0x39ea68e9	0.00044710122
110	0x38a93447	8.0682854e-05
111	0xb81d160a	-3.7452242e-05
112	0x3a2b4713	0.0006533723
113	0x3aca3562	0.0015427286
114	0x39df232d	0.00042560083
115	0x3a33edcc	0.00068637426
116	0x38bcf9a3	9.011037e-05
117	0xba1eb484	-0.00060541206
118	0x394013bf	0.00018317903
119	0x392fbc5f	0.00016759474
120	0xbaad5859	-0.0013225182
121	0x3aa25533	0.001238501
122	0x3a245fc6	0.0006270375
123	0x3b2999cd	0.0025879026
124	0x3722480e	9.672729e-06
125	0xb8acc7d0	-8.238817e-05
126	0x39a78385	0.00031950712
127	0x3a7ad339	0.0009568218
128	0xb9aa30ff	-0.00032461432
129	0x3779dba0	1.4892692e-05
130	0xb9569d05	-0.00020467125
131	0xb8c0ef5e	-9.199859e-05
132	0x3a7a25cf	0.0009542377
133	0x397e04e2	0.00024225147
134	0xb6051c3b	-1.9834977e-06
135	0xb94abb3f	-0.00019333976
136	0x38ee728c	0.000113700604
137	0x39c0f99d	0.0003680707
138	0xb9af2a32	-0.0003341004
139	0x35d96476	1.6196998e-06
140	0x3995b86c	0.000285569
141	0xb9bb9e2e	-0.00035785272
142	0xba004642	-0.0004893282
143	0xb8c15208	-9.218237e-05
144	0x3a999d30	0.0011719819
145	0x3923c9d1	0.00015620074
146	0xba59b865	-0.000830537
147	0x379f2d75	1.8975445e-05
148	0x3917d158	0.00014478469
149	0xba1ce240	-0.00059846416
150	0xbad80440	-0.0016480759
151	0x3a149cd4	0.0005669121
152	0xb88ff70a	-6.864786e-05
153	0x39f1f1cc	0.00046147255
154	0x3876cb47	5.8840287e-05
155	0xb919b209	-0.0001465754
156	0xba67e296	-0.00088457146
157	0xb992b6f3	-0.00027983598
158	0xbac54fb8	-0.0015053665
159	0x3854c331	5.0726525e-05
160	0xb9ba501a	-0.00035536365
161	0xb855c4be	-5.0966388e-05
162	0x39cdbf54	0.00039243198
163	0xbb0112cf	-0.0019695049
164	0x39335b13	0.00017104698
165	0xb922fba5	-0.00015543269
166	0xba397298	-0.0007074266
167	0xb8792d81	-5.9408605e-05
168	0x37aedc67	2.084505e-05
169	0xb91e312f	-0.00015086377
170	0x3a805e06	0.0009793646
171	0x398f83e4	0.00027373352
172	0x39a26091	0.00030970995
173	0x37cef6f8	2.4672117e-05
174	0x3731db08	1.0601019e-05
175	0x39a7a6a7	0.00031976888
176	0x386dc0a7	5.6684625e-05
177	0x3a4076eb	0.0007341939
178	0xb97aa250	-0.00023902324
179	0x3a6c5996	0.0009016035
180	0x38c770a1	9.510038e-05
181	0x3a28a675	0.00064334954
182	0x38dda9df	0.00010569742
183	0x3a325332	0.0006802558
184	0x39454e1c	0.00018816482
185	0x396f5666	0.00022825002
186	0xb738936d	-1.100158e-05
187	0xbb285ecc	-0.002569127
188	0x36d89f1a	6.4558235e-06
189	0x38f26e43	0.00011559997
190	0x3a2f3447	0.000668351
191	0xb8941f14	-7.062979e-05
192	0x3a0c802d	0.0005359676
193	0xb95634f5	-0.00020428358
194	0x39a6bead	0.00031804052
195	0xba125d7e	-0.00055833894
196	0x390a480b	0.00013187544
197	0x38d1b3ca	9.999385e-05
198	0x388dc9e3	6.761008e-05
199	0xba22b3d7	-0.0006206608
200	0x39919953	0.0002777079
201	0x3827138f	3.9834118e-05
202	0x38daea27	0.00010438664
203	0xba7910da	-0.0009501107
204	0xba3b3939	-0.0007142011
205	0x39174d3b	0.00014429253
206	0xb9f4a1fb	-0.00046659991
207	0xb991e299	-0.00027825384
208	0x3a2508fc	0.0006295589
209	0x396937e1	0.00022241428
210	0xba700806	-0.0009156469
211	0x3af29e6a	0.0018510346
212	0x3a64a37f	0.00087218726
213	0xb9d45ec2	-0.0004050639
214	0xb83ce934	-4.503988e-05
215	0xbb136af5	-0.0022494171
216	0xb8d80cf6	-0.00010302097
217	0x3af07f1a	0.0018348426
218	0xba0ad58d	-0.0005296104
219	0x39dfc66e	0.00042681716
220	0x3817bc67	3.617667e-05
221	0x39ed6b5f	0.0004528416
222	0xb960ce5f	-0.00021439184
223	0x35df7990	1.6650174e-06
224	0xb9c77dbc	-0.00038049917
225	0xb89d9fe0	-7.5161224e-05
226	0x39aeb947	0.0003332591
227	0xbac2d0b5	-0.0014863225
228	0x39862d9a	0.00025592447
229	0x3929ddd5	0.00016199735
230	0x39774dc1	0.00023584721
231	0x39a2f017	0.0003107793
232	0xb870c22a	-5.740129e-05
233	0x37401741	1.1449506e-05
234	0xb8464620	-4.7272188e-05
235	0xba59fa0d	-0.00083151535
236	0xba312a79	-0.0006758343
237	0xb952b305	-0.0002009385
238	0x3a2b8592	0.0006543036
239	0x39229d3b	0.00015508097
240	0xba8c1c52	-0.0010689592
241	0xbabe55bb	-0.0014521399
242	0xba093846	-0.00052345206
243	0x3a24955f	0.00062783615
244	0x39794bd2	0.00023774736
245	0xba0f61b4	-0.0005469576
246	0x39d04720	0.00039725844
247	0x384ae0f3	4.8370053e-05
248	0x3aab714f	0.0013080033
249	0xb97ed599	-0.00024302899
250	0xb5622e7f	-8.425922e-07
251	0xba938982	-0.001125619
252	0xb5c5faee	-1.4750674e-06
253	0xb9dbf3a3	-0.0004195246
254	0xb9b6a89d	-0.00034839372
255	0xba89abfc	-0.0010503526

fc4.bias f4 [128]
0	0x3a1d5d76	0.00060030015
1	0x3a6f5908	0.0009130393
2	0x390f8f3d	0.00013690903
3	0x3efa07e0	0.48834133
4	0x3a84e47d	0.0010138896
5	0xb9867940	-0.0002564881
6	0x3a7a91ff	0.0009558498
7	0xbaca11da	-0.0015416697
8	0x3b348d59	0.002755007
9	0x3ae437f0	0.001741169
10	0x3f149543	0.58040255
11	0x3bd5d0d6	0.0065251393
12	0x3b64724e	0.003485817
13	0xbd814884	-0.063126594
14	0xbddc2abc	-0.107503384
15	0xbb3d0a84	-0.002884538
16	0x3ad9e799	0.0016624808
17	0xba922a13	-0.0011151455
18	0xbb61aec6	-0.0034436448
19	0xba8d6444	-0.0010787328
20	0xba8e95e3	-0.001087841
21	0xbb11b582	-0.0022233431
22	0x37e6ca26	2.751227e-05
23	0xbe8480c6	-0.25879496
24	0xb9e62d5a	-0.00043902808
25	0x3a88fccc	0.0010451316
26	0x391cdfda	0.0001496071
27	0xbbef65b7	-0.0073058265
28	0x399a577a	0.00029438344
29	0xbf0ff7f5	-0.5623773
30	0x3b536d78	0.0032261293
31	0xbb76f57e	-0.0037682946
32	0x3ba03c28	0.0048899837
33	0x3b194b79	0.0023390932
34	0xbe71e32d	-0.23621817
35	0xb936b5a8	-0.00017424545
36	0xbb28cf1c	-0.0025758212
37	0x3b4d1889	0.0031295142
38	0x38abe917	8.197332e-05
39	0x3aa97ee1	0.001293149
40	0x3b5f7c0f	0.0034101044
41	0x3b86ba47	0.0041115615
42	0xbb1225cc	-0.002230036
43	0xbaad7fd9	-0.0013236954
44	0xbe3722a1	-0.17884304
45	0x3ad85e1a	0.0016507537
46	0x3abaa38d	0.0014239416
47	0xb95f7d58	-0.00021313631
48	0xbb8b2ca2	-0.004247264
49	0xbb86fb82	-0.0041193375
50	0xbd238216	-0.03991898
51	0xb9776fd6	-0.00023597418
52	0xbb2e016b	-0.0026551138
53	0xb974a2c2	-0.00023330285
54	0xbab9d8ad	-0.0014178954
55	0xbaaa0ced	-0.0012973823
56	0xb92c18d0	-0.00016412442
57	0xbabfd71d	-0.0014636252
58	0xba157655	-0.0005701532
59	0xbb071f30	-0.0020617954
60	0xbf1fc9bb	-0.6241719
61	0x3b062f30	0.0020474903
62	0x3a28c0da	0.00064374285
63	0x37646571	1.3613478e-05
64	0x3ca63660	0.0202896
65	0x3bb230aa	0.00543793
66	0xbb49f43d	-0.0030815743
67	0x3a675efa	0.00088261033
68	0xbc42ad2c	-0.011882108
69	0xbae5cf2b	-0.0017533054
70	0x3b728efb	0.0037011493
71	0xbee04abd	-0.4380702
72	0xbd650f0e	-0.05592256
73	0xbeda7fad	-0.42675534
74	0xbab8d072	-0.0014100207
75	0xbb48fd7d	-0.003066867
76	0xb9ed9e41	-0.0004532207
77	0xbb0567db	-0.0020356092
78	0xbb09b9c3	-0.0021015264
79	0x3e8d7fab	0.27636465
80	0x3bd07d76	0.0063626124
81	0xb9a8f3a8	-0.00032224995
82	0x3c3fba23	0.011702093
83	0x3b6f7989	0.0036540946
84	0x393ba0b5	0.00017893578
85	0xbade71ed	-0.0016971208
86	0x3aaef45b	0.001334797
87	0x3ab9acd4	0.0014165887
88	0x3a43dfe7	0.0007472024
89	0x3ae562b1	0.0017500726
90	0x3bba2e26	0.005681771
91	0xbec14619	-0.37748793
92	0x3b107658	0.0022043195
93	0x3a052961	0.00050797133
94	0x3abae222	0.0014258067
95	0xbba27a00	-0.004958391
96	0xba0835a6	-0.00051959825
97	0xba9c8ca9	-0.0011943775
98	0xb9fc81fc	-0.0004816203
99	0xbf043e2c	-0.51657367
100	0xbcb28b81	-0.021795036
101	0xb98e302d	-0.00027120244
102	0x3bc644c7	0.0060506794
103	0xbb0e3959	-0.0021701662
104	0xbe02cac1	-0.12772657
105	0x39f1e391	0.00046136652
106	0x3af7788d	0.0018880531
107	0xbc46e541	-0.012139619
108	0xba49aaee	-0.0007693012
109	0xb98c8259	-0.00026799997
110	0x3b25c5a8	0.0025294814
111	0x3abbc742	0.0014326351
112	0xbeceb88c	-0.40375173
113	0xbb57df49	-0.0032939485
114	0xbb67d24e	-0.0035373154
115	0xbb62b9f1	-0.0034595693
116	0xb6dd456b	-6.5943946e-06
117	0x3aff4609	0.0019475828
118	0x372d7dce	1.0340895e-05
119	0xbc09a7a4	-0.008401785
120	0xba1df2f9	-0.00060252805
121	0xbb6c7812	-0.003608231
122	0xbe577268	-0.21039736
123	0xbbad74fe	-0.0052934876
124	0x3c397b35	0.011320879
125	0xbbc4b2a6	-0.006002742
126	0x3b2c6575	0.002630559
127	0xbb246414	-0.0025084065

fc5_1.weight f4 [1, 128]
0	0x37dc7781	2.6281692e-05
1	0xb709ed48	-8.221083e-06
2	0xb7be18ec	-2.266137e-05
3	0xbe4ba1bc	-0.19885916
4	0x380304e9	3.1237407e-05
5	0xb81e3003	-3.771485e-05
6	0x37d86262	2.579502e-05
7	0xb86e7ae0	-5.6858058e-05
8	0xb7cadced	-2.4183153e-05
9	0xb837920d	-4.376662e-05
10	0x3d62236f	0.055209573
11	0xb80e513e	-3.39311e-05
12	0x382dabba	4.1406347e-05
13	0x3e5d13ab	0.21589534
14	0xbe0f5e51	-0.14000823
15	0xb6a3935b	-4.874933e-06
16	0x372d81e9	1.0341851e-05
17	0xb7a6fb51	-1.990577e-05
18	0xb654b2c0	-3.1694508e-06
19	0xb7bb3d58	-2.2320703e-05
20	0xb8539d90	-5.045306e-05
21	0x38111d2b	3.459786e-05
22	0x33d35bb0	9.842131e-08
23	0x3e549950	0.20761609
24	0x372dd7f6	1.0361886e-05
25	0xb838da2c	-4.4072207e-05
26	0x38b93cb4	8.832794e-05
27	0x361c6b35	2.3308214e-06
28	0x374967d6	1.200471e-05
29	0xbe0d28a4	-0.13785034
30	0xb7882551	-1.622984e-05
31	0xb7d87581	-2.5803924e-05
32	0x37c6b060	2.368557e-05
33	0xb793b804	-1.7609455e-05
34	0x3dc6f2d7	0.09714287
35	0xb760897b	-1.338345e-05
36	0xb6ccda16	-6.1050623e-06
37	0x36df8a44	6.662014e-06
38	0xb807df66	-3.2394564e-05
39	0x340aa2fc	1.2911545e-07
40	0x389c9704	7.4667885e-05
41	0xb7ad3d69	-2.0651803e-05
42	0x3854f3f7	5.077195e-05
43	0xb7d23a82	-2.5061196e-05
44	0x3bc10add	0.0058911876
45	0xb55d65ef	-8.247725e-07
46	0x34b946b0	3.4510367e-07
47	0xb81905f5	-3.648359e-05
48	0x3724d310	9.824304e-06
49	0x38699cfb	5.569773e-05
50	0x3de18d11	0.110132344
51	0x37304311	1.0506033e-05
52	0xb786acb4	-1.6054466e-05
53	0x3742e928	1.1617587e-05
54	0x375183ba	1.2488041e-05
55	0xb7d6d466	-2.5609694e-05
56	0x36d5257d	6.352259e-06
57	0xb7b19d76	-2.1173368e-05
58	0x3881a01d	6.181023e-05
59	0xb825dfd8	-3.9547536e-05
60	0x3c0bf353	0.0085419
61	0xb75a77c0	-1.3021694e-05
62	0x385c6182	5.25429e-05
63	0xb7d137bd	-2.4940697e-05
64	0xbc02030b	-0.007935296
65	0x3809db3d	3.2867527e-05
66	0xb7c407cb	-2.336865e-05
67	0x37698b42	1.3920306e-05
68	0x37c856be	2.388225e-05
69	0x385e0791	5.293597e-05
70	0x370384e4	7.8391495e-06
71	0xbc80ed56	-0.01573817
72	0xbddce659	-0.10786123
73	0x3e3d8983	0.18509488
74	0x37a02d49	1.9094574e-05
75	0xb835b99d	-4.332663e-05
76	0x3507eaec	5.0633275e-07
77	0x371353d1	8.781398e-06
78	0xb83fed78	-4.575911e-05
79	0x3e6fb5c9	0.2340919
80	0xb645f809	-2.9499663e-06
81	0xb3574c40	-5.0127937e-08
82	0xb896fda5	-7.199802e-05
83	0x3702c500	7.7944715e-06
84	0xb8195712	-3.6559133e-05
85	0xb7fb5165	-2.9959434e-05
86	0x380b547c	3.3218865e-05
87	0xb701b432	-7.730954e-06
88	0x3657df84	3.21676e-06
89	0xb734a32a	-1.0766826e-05
90	0x37b51a7a	2.158921e-05
91	0xbda06c90	-0.07833207
92	0x388ef92a	6.817498e-05
93	0xb7c0ce31	-2.2984199e-05
94	0xb8077e29	-3.2304004e-05
95	0xb5df9798	-1.6658914e-06
96	0xb824806b	-3.9220246e-05
97	0xb89318d4	-7.014131e-05
98	0xb732d750	-1.0659758e-05
99	0xbdb67902	-0.08909799
100	0x3d28b5c1	0.04118896
101	0xb7d94fd6	-2.5905592e-05
102	0x37f26e55	2.8900025e-05
103	0xb8104dbe	-3.440468e-05
104	0xbc8701d1	-0.016480358
105	0x378e1377	1.6936783e-05
106	0xb72fe0b7	-1.0483133e-05
107	0xb7848d2a	-1.580136e-05
108	0x381ecfcd	3.7863665e-05
109	0x3841a9cc	4.617292e-05
110	0xb734c3b4	-1.0774402e-05
111	0xb74197df	-1.1539057e-05
112	0x3e381a25	0.17978723
113	0xb886140d	-6.393353e-05
114	0x3679b6e8	3.7210357e-06
115	0xb8874266	-6.449669e-05
116	0xb705bbe1	-7.971162e-06
117	0xb7981450	-1.812927e-05
118	0xb842ada3	-4.6414916e-05
119	0xb83ea5e9	-4.5454046e-05
120	0xb7da5ed0	-2.6031776e-05
121	0x3818d5ec	3.6438854e-05
122	0x3e34163f	0.17586611
123	0xb5a01b6c	-1.192891e-06
124	0x37ea8d87	2.7960878e-05
125	0xb6ceafec	-6.1597584e-06
126	0x38663708	5.4887525e-05
127	0xb703f948	-7.866249e-06

fc5_2.weight f4 [1, 128]
0	0xb7524094	-1.2532011e-05
1	0xb79887ee	-1.818311e-05
2	0xb6e237d3	-6.7418237e-06
3	0x3df296b6	0.11845152
4	0x37469a28	1.1837612e-05
5	0x3716073d	8.942382e-06
6	0xb7cc900a	-2.4385768e-05
7	0x3728b195	1.0054927e-05
8	0x3814227b	3.5318062e-05
9	0x3751da9e	1.25082715e-05
10	0x3ebe6735	0.37188116
11	0x36d2ec7b	6.2860177e-06
12	0xb8468bd3	-4.73371e-05
13	0x3b531cdf	0.0032213253
14	0xbb098451	-0.0020983408
15	0xb6b4ccf0	-5.388276e-06
16	0x37d131a1	2.4937852e-05
17	0xb8485440	-4.776218e-05
18	0xb826bf42	-3.9755607e-05
19	0x379918de	1.8250601e-05
20	0xb6dda7f9	-6.605868e-06
21	0xb8244945	-3.9168885e-05
22	0xb77acf66	-1.494945e-05
23	0x3759dafd	1.2985195e-05
24	0x379e2fec	1.8857383e-05
25	0x37bdeceb	2.264088e-05
26	0xb8ed0867	-0.00011302606
27	0xb71add70	-9.230673e-06
28	0x371c528a	9.317542e-06
29	0xbcd4691f	-0.025929032
30	0xb6ee364e	-7.0992746e-06
31	0x37c91a3a	2.397328e-05
32	0xb6f683e7	-7.3467268e-06
33	0xb69a08cc	-4.5905817e-06
34	0xbc16eee6	-0.009212231
35	0xb7fd9e20	-3.0233583e-05
36	0x37c6a688	2.3680986e-05
37	0x37c16824	2.3055887e-05
38	0xb7d81664	-2.5759633e-05
39	0xb70e86d1	-8.495249e-06
40	0xb89f6647	-7.6007615e-05
41	0x3792b224	1.748751e-05
42	0xb72695b1	-9.929224e-06
43	0x377dd234	1.5128917e-05
44	0xbd6c4d40	-0.05769086
45	0xb5811b1a	-9.619137e-07
46	0x3615136e	2.221404e-06
47	0x37723e7b	1.4438871e-05
48	0xb6965845	-4.4806243e-06
49	0xb78b7120	-1.662277e-05
50	0x3b14e50d	0.0022719533
51	0xb7f638af	-2.935188e-05
52	0xb875975f	-5.8553527e-05
53	0x37f67a93	2.9382563e-05
54	0xb682285e	-3.8790013e-06
55	0xb59a5da8	-1.1501152e-06
56	0x37b91fbd	2.2068498e-05
57	0xb51adb6f	-5.768879e-07
58	0xb75c34bc	-1.31253e-05
59	0x371f3bca	9.491059e-06
60	0xbd79ff91	-0.061034743
61	0x3719cd83	9.16736e-06
62	0x36481d16	2.9819253e-06
63	0xb76cf47e	-1.4123621e-05
64	0xbe8cd964	-0.27509606
65	0x36d63771	6.384151e-06
66	0xb7efa464	-2.856757e-05
67	0x3704a13f	7.905356e-06
68	0x36d59d29	6.3661905e-06
69	0x37366a80	1.0872842e-05
70	0x36f3209a	7.2457597e-06
71	0xbed6c4f1	-0.4194713
72	0x3ab6ec44	0.0013955911
73	0xbdccb4a3	-0.09995391
74	0xb39c10ec	-7.267394e-08
75	0x37b16aed	2.1149835e-05
76	0x383c0e3c	4.483595e-05
77	0x3727fe01	1.0013116e-05
78	0x3705811f	7.957481e-06
79	0x3d0d692c	0.034524128
80	0x38633a23	5.417516e-05
81	0xb6acd5f9	-5.150909e-06
82	0x3860e873	5.3622247e-05
83	0x36327c3b	2.6596379e-06
84	0x3831d7bf	4.2401018e-05
85	0x36a78af2	4.993163e-06
86	0x3682975b	3.891922e-06
87	0x375225f8	1.2525816e-05
88	0x35895e12	1.0234673e-06
89	0xb72a36b1	-1.0145523e-05
90	0xb756b603	-1.2797772e-05
91	0xba82341f	-0.0009933746
92	0xb847d8f4	-4.764735e-05
93	0xb8049827	-3.1612955e-05
94	0xb780ffe4	-1.5377947e-05
95	0x360d8a38	2.1091091e-06
96	0xb71d2cbb	-9.368344e-06
97	0xb81dabd3	-3.759174e-05
98	0x3798881c	1.8183193e-05
99	0xbe878c8a	-0.2647441
100	0xbb9ab4f1	-0.004721277
101	0x380917f0	3.268564e-05
102	0xb6a6ef1c	-4.9750215e-06
103	0xb7d5aa73	-2.547095e-05
104	0xbed7e154	-0.421641
105	0x3777d9f2	1.4773092e-05
106	0xb78bc0ac	-1.6659811e-05
107	0x3691c666	4.3444334e-06
108	0x37a8ac27	2.0107325e-05
109	0x36c9e9cd	6.017485e-06
110	0x37838917	1.5680254e-05
111	0xb6687a96	-3.4642048e-06
112	0xbd08bbc3	-0.03338219
113	0x36529b0a	3.1382683e-06
114	0xb8887885	-6.507434e-05
115	0x380489e0	3.159966e-05
116	0xb6942a9e	-4.415705e-06
117	0x375000e6	1.2397975e-05
118	0x369c1106	4.651144e-06
119	0x37955322	1.7800896e-05
120	0xb8211894	-3.840828e-05
121	0xb88ee904	-6.81449e-05
122	0x3b350a65	0.0027624604
123	0xb7900af0	-1.717123e-05
124	0xb7b9a173	-2.21289e-05
125	0xb7beedd2	-2.2760509e-05
126	0xb8782f65	-5.9171947e-05
127	0xb714140b	-8.826154e-06
